Model: "att_base"
┏━━━━━━━━━━━━━━━━━━━━━┳━━━━━━━━━━━━━━━━━━━┳━━━━━━━━━━━━┳━━━━━━━━━━━━━━━━━━━┓
┃ Layer (type)        ┃ Output Shape      ┃    Param # ┃ Connected to      ┃
┡━━━━━━━━━━━━━━━━━━━━━╇━━━━━━━━━━━━━━━━━━━╇━━━━━━━━━━━━╇━━━━━━━━━━━━━━━━━━━┩
│ input (InputLayer)  │ (None, 512)       │          0 │ -                 │
├─────────────────────┼───────────────────┼────────────┼───────────────────┤
│ embedding           │ (None, 512, 128)  │      9,088 │ input[0][0]       │
│ (Embedding)         │                   │            │                   │
├─────────────────────┼───────────────────┼────────────┼───────────────────┤
│ self_attention      │ (None, 512, 128)  │    263,808 │ embedding[0][0],  │
│ (MultiHeadAttentio… │                   │            │ embedding[0][0]   │
├─────────────────────┼───────────────────┼────────────┼───────────────────┤
│ gap                 │ (None, 128)       │          0 │ self_attention[0… │
│ (GlobalAveragePool… │                   │            │                   │
├─────────────────────┼───────────────────┼────────────┼───────────────────┤
│ output (Dense)      │ (None, 1)         │        129 │ gap[0][0]         │
└─────────────────────┴───────────────────┴────────────┴───────────────────┘
 Total params: 273,025 (1.04 MB)
 Trainable params: 273,025 (1.04 MB)
 Non-trainable params: 0 (0.00 B)

